model/conv_model.onnx (onnx, 20606 bytes, 5 tensors)

fc1.bias f4 [432]
-0.5665052 -0.086164445 -0.13249016 -0.02519989 0.061752975 -0.57077974 -0.19722179 0.35859257
0.053960264 0.1707161 -0.5417754 -0.08347687 0.046106756 0.11110455 0.17849302 -0.15558371
0.34394485 -0.07321191 0.42158717 0.5205796 -0.45922318 -0.07544458 0.4788468 -0.190249
0.5304563 0.38030422 -0.1699192 0.48552 -0.22250071 0.43319368 0.3268879 0.52134836
-0.08460584 -0.4197905 -0.005118847 0.23985118 -0.27212852 0.13038844 0.021753311 -0.56059146
0.14672327 0.012651503 0.14315754 -0.16060859 -0.15832421 -0.35294288 0.13186735 -0.38838178
-0.029960692 -0.032712996 0.3897928 0.21341729 -0.4103067 0.023383081 -0.031352937 0.3894531
0.31494588 0.11138123 0.4177642 -0.42085248 -0.29810533 0.18218827 0.5337944 0.4566481
0.573413 -0.3394333 -0.32731453 0.27634388 0.34249258 0.07905102 -0.5470028 0.25156528
0.017698646 -0.22668627 -0.31871623 0.33898264 -0.3794276 -0.38134593 -0.29192135 -0.4547041
-0.0018973947 0.5563189 0.5686853 0.0020639896 -0.08210629 0.43126988 -0.4828922 0.46503377
-0.2545471 -0.49867678 -0.1891334 -0.17910025 -0.24908909 -0.5125562 -0.2326043 -0.49460927
-0.10911274 -0.4136848 0.009875357 -0.06338698 -0.38225353 -0.039053917 0.23342085 0.15628844
-0.32968736 -0.42091966 -0.46911222 0.4165944 0.15781933 0.21116054 0.2827592 0.39286125
0.35278952 -0.06262958 -0.3045492 0.23457384 -0.47412768 -0.40337086 -0.34246626 -0.4873509
-0.13265142 -0.22668323 0.079110384 -0.28158033 0.55961025 -0.44315684 -0.41821885 -0.48580846
-0.33015847 0.533679 0.14776659 -0.022487402 0.23096341 0.49242544 -0.075693905 0.53949416
-0.0023296475 -0.49244428 -0.014184594 -0.34835768 -0.07798633 0.5028968 0.2982229 -0.384494
0.20412558 0.2591896 0.4410622 -0.5352076 0.18776399 0.10886878 -0.33911455 0.37422436
-0.06351787 0.2967487 -0.5124939 -0.51562005 0.11289024 -0.37031966 -0.24666816 0.43086863
-0.20469925 -0.28127956 -0.31034994 0.02388966 0.46165943 0.019326687 0.12654334 -0.55871284
-0.4965233 -0.24573669 0.15179032 0.16038829 0.41409743 0.30069542 -0.30110025 0.41792506
0.08588719 -0.39887545 -0.30932128 -0.14796874 -0.18010962 0.17692548 0.29216534 -0.36246985
0.4257897 0.42767537 -0.10924393 0.28214002 -0.078834474 -0.43987116 -0.19340864 0.55009484
-0.0856826 0.40932822 0.5542904 -0.22410125 0.35824078 -0.26843843 -0.35441196 -0.02635777
0.28078777 -0.0030422807 0.5526792 0.17889583 0.52560925 -0.5528586 0.26799256 0.009945154
-0.49377126 -0.34076634 -0.47236094 -0.12624037 -0.09619522 -0.022197068 -0.5767171 -0.23078758
0.54344094 0.36221397 -0.53640664 0.56407726 0.1315561 0.14496928 -0.30182198 0.19741744
-0.39996722 -0.43976936 0.16317093 0.06957185 -0.08010781 -0.54277164 -0.3676847 0.068071306
0.5582411 -0.5012231 0.4203059 -0.4466784 0.42148256 0.22340602 0.40514123 -0.2618065
-0.10262057 0.053701818 0.2874658 -0.33999282 0.5680795 0.318839 0.1485762 0.39527977
-0.010183692 0.509459 -0.31865215 -0.46087855 -0.097346604 0.23922276 -0.38530713 0.030857325
00000000: 7c06 11bf fc76 b0bd 80ab 07be 0070 cebc
00000010: b0f0 7c3d 9f1e 12bf 82f4 49be 7299 b73e
00000020: 7005 5d3d 34d0 2e3e cbb1 0abf ecf5 aabd
00000030: 70da 3c3d c88a e33d e0c6 363e 5651 1fbe
00000040: 8a19 b03e 20f0 95bd 46da d73e b444 053f
00000050: 4d1f ebbe b082 9abd 682b f53e a2d0 42be
00000060: fccb 073f 3cb7 c23e 4cff 2dbe 1496 f83e
00000070: 3ad7 63be 90cb dd3e da5d a73e 1677 053f
00000080: d445 adbd c8ee d6be 00bc a7bb 8c9b 753e
00000090: 6e54 8bbe 8c84 053e 0034 b23c ec82 0fbf
000000a0: a03e 163e 4048 4f3c e497 123e 9476 24be
000000b0: be1f 22be eeb4 b4be 3c08 073e fad9 c6be
000000c0: 2070 f5bc 10fe 05bd ec92 c73e 108a 5a3e
000000d0: b813 d2be e08d bf3c f06b 00bd 6666 c73e
000000e0: 9640 a13e d81b e43d 30e5 d53e fa79 d7be
000000f0: 43a1 98be 908f 3a3e c0a6 083f c8cd e93e
00000100: 32cb 123f 34ca adbe c595 a7be f27c 8d3e
00000110: 305b af3e 80e5 a13d 6008 0cbf 2acd 803e
00000120: c0fc 903c 7220 68be c62e a3be 228f ad3e
00000130: 5644 c2be c63f c3be b776 95be face e8be
00000140: 00b2 f8ba ea6a 0e3f 5c95 113f 0044 073b
00000150: 5827 a8bd 68cf dc3e a53d f7be e818 ee3e
00000160: ff53 82be 9052 ffbe 30ac 41be 0e66 37be
00000170: 3611 7fbe e236 03bf d22f 6ebe 6d3d fdbe
00000180: 8076 dfbd 7ece d3be 40cc 213c 08d1 81bd
00000190: bcb6 c3be 00f7 1fbd e005 6f3e 140a 203e
000001a0: c8cc a8be c882 d7be 7a2f f0be dc4b d53e
000001b0: 649b 213e 783a 583e d0c5 903e 1c25 c93e
000001c0: d4a0 b43e f043 80bd dfed 9bbe 2034 703e
000001d0: ddc0 f2be a086 cebe bd57 afbe 0f86 f9be
000001e0: c6d5 07be a61f 68be a004 a23d 4c2b 90be
000001f0: 9e42 0f3f 74e5 e2be c820 d6be e3bb f8be
00000200: 880a a9be 309f 083f 2050 173e 8037 b8bc
00000210: ac81 6c3e 301f fc3e 6805 9bbd 4a1c 0a3f
00000220: 00ad 18bb a821 fcbe 8066 68bc f05b b2be
00000230: 4cb7 9fbd d8bd 003f acb0 983e 66dc c4be
00000240: 4c06 513e 80b4 843e e8d2 e13e 5e03 09bf
00000250: 3445 403e 98f6 de3d 6ca0 adbe 569a bf3e
00000260: a815 82bd 72ef 973e cd32 03bf adff 03bf
00000270: 0033 e73d 8a9a bdbe 9496 7cbe d09a dc3e
00000280: ae9c 51be e003 90be 30e6 9ebe 40b4 c33c
00000290: a05e ec3e 0053 9e3c 9494 013e ce07 0fbf
000002a0: 4d38 febe 66a2 7bbe ec6e 1b3e d43c 243e
000002b0: 9404 d43e c0f4 993e d029 9abe 46fa d53e
000002c0: a0e5 af3d 6739 ccbe 5c5f 9ebe 1e85 17be
000002d0: a86e 38be f42b 353e b296 953e a695 b9be
000002e0: 1c01 da3e 44f8 da3e 48bb dfbd a874 903e
000002f0: f873 a1bd cb36 e1be ea0c 46be 04d3 0c3f
00000300: 5c7a afbd 7893 d13e fae5 0d3f cc7a 65be
00000310: 566b b73e c370 89be 7c75 b5be 40ec d7bc
00000320: 6ac3 8f3e 0061 47bb 627c 0d3f 7830 373e
00000330: 548e 063f 2488 0dbf 5236 893e 00f1 223c
00000340: 96cf fcbe ed78 aebe 4bd9 f1be 2845 01be
00000350: 0002 c5bd a0d6 b5bc bba3 13bf 9453 6cbe
00000360: f21e 0b3f 1c74 b93e f251 09bf 5e67 103f
00000370: a4b6 063e d472 143e 6988 9abe cc27 4a3e
00000380: 81c8 ccbe 7329 e1be 4816 273e b07b 8e3d
00000390: 900f a4bd 15f3 0abf 2b41 bcbe f868 8b3d
000003a0: e4e8 0e3f 2850 00bf 5632 d73e 08b3 e4be
000003b0: 90cc d73e 8cc4 643e ac6e cf3e 800b 86be
000003c0: bc2a d2bd 70f6 5b3d b82e 933e 8a13 aebe
000003d0: a86d 113f de3e a33e 5c24 183e 1c62 ca3e
000003e0: 80d9 26bc e86b 023f 6026 a3be 46f8 ebbe
000003f0: a85d c7bd d0f6 743e fa46 c5be 80c8 fc3c

conv2.weight f4 [7, 3, 12, 12]
-0.006181948 0.0015225597 -0.033697605 -0.03640052 -0.042385854 0.012108721 0.03793106 -0.03767302
-0.038606927 0.02268206 0.00076808035 0.024361413 0.019120675 0.042256113 -0.030656708 0.026281293
0.045892786 -0.029331857 -0.012537222 -0.012501512 0.0031654648 0.0035015047 -0.007497169 -0.015670698
-0.012062784 0.0346605 -0.027574312 -0.015212268 0.027106043 0.004961945 -0.033569068 0.047748383
-0.036184143 0.018427897 -0.046604034 -0.032765683 -0.016953433 0.04156204 -0.04363786 -0.009789173
0.004284542 -0.043501947 -0.04299619 0.033492643 0.03103457 -0.038076833 -0.019035457 0.005669575
0.022312466 -0.027960291 -0.028420115 0.018089648 -0.021804662 -0.047405146 0.008306395 0.04770771
-0.03694828 0.024941575 -0.030972768 0.030639712 -0.006354533 0.021434497 0.021494474 -0.010446399
-0.016225375 -0.03101171 -0.04659787 -0.01612087 0.04567297 0.04804075 -0.04067225 0.04345842
-0.012447469 -0.04469046 0.035534974 0.030177262 -0.014956512 0.025664005 0.0016433932 -0.045137174
0.017212305 -0.033841915 -0.019309 -0.016878374 -0.0199231 0.025681507 0.040658433 -0.0027502328
0.014442649 -0.002199404 -0.035991207 -0.044150222 0.023554351 0.0047557354 -0.0090296045 0.019616153
0.026730496 0.032820012 0.031136941 -0.005470544 -0.013773717 0.025039997 0.013765935 -0.036865667
0.013412368 -0.02652345 -0.026529718 0.04556558 0.006809838 0.03369644 -0.0077478103 -0.02760822
0.0035166107 -0.04256999 0.041901935 -0.018133562 -0.023182211 0.019474652 0.046469215 0.0023722015
-0.0018386506 0.0276041 0.037855756 -0.032497384 -0.032267116 -0.024774335 0.005303338 0.013739295
0.0399863 -0.016608723 0.03275792 0.01877651 0.019933935 0.016915496 -0.027141066 0.0064791553
-0.0468916 0.008181598 -0.02877814 0.011735506 0.034508582 -0.0016815066 -0.01575302 -0.005338952
-0.03708077 0.040776227 0.02641147 0.01766881 -0.034644328 0.0416249 -0.0075963177 -0.0047883354
0.04568785 -0.017069513 0.009739578 -0.025939701 0.012364406 -0.0038243234 0.04579894 0.039057504
0.041762743 -0.048028022 -0.03996464 0.034777906 0.022985931 0.010913167 0.021451976 -0.04201684
0.029128272 0.029227745 -0.01438256 0.009222247 -0.04759304 -0.009052269 0.03677213 0.02713668
-0.035553616 -0.043999694 -0.00979948 -0.03660498 -0.012710758 0.035037946 0.004925728 0.031899195
-0.029941106 -0.028699804 0.005799491 -0.038239937 -0.035250984 0.038223516 -0.03536602 -0.04732497
0.030053575 0.006573919 0.03384098 -0.028433949 -0.019971473 -0.017376574 0.021283258 -0.036836367
0.004367918 -0.004934348 -0.011317506 0.028651554 -0.042874865 0.04514176 0.009517308 0.032655124
-0.045358744 0.020941596 0.0015335344 0.03948831 -0.042879175 0.036542166 -0.02445705 -0.0065803044
0.023800027 0.007971637 -0.028856933 0.008066423 -0.04051545 -0.029174373 -0.003002707 0.0044000484
-0.032665797 0.017148491 0.03322817 0.008650817 -0.000766471 -0.0015366673 -0.039645676 0.016723204
0.03984726 -0.039561346 0.013568945 0.0245932 -0.009533592 0.039395038 0.021929499 -0.038990073
-0.028167335 0.031250115 0.023660112 0.011579849 0.03134614 -0.012221873 0.014984701 -0.012792505
-0.03461253 0.0136651285 -0.030322095 -0.027215319 0.039948184 -9.452179e-05 0.038863886 -0.031973954
00000000: f091 cabb a090 c73a 8006 0abd b618 15bd
00000010: ca9c 2dbd a863 463c 995d 1b3d 064f 1abd
00000020: 4c22 1ebd bacf b93c 0059 493a 9691 c73c
00000030: f6a2 9c3c bf14 2d3d c723 fbbc de4b d73c
00000040: 13fa 3b3d 5d49 f0bc ec68 4dbc 24d3 4cbc
00000050: b073 4f3b 8079 653b d0aa f5bb d65f 80bc
00000060: fca2 45bc 2bf8 0d3d 86e3 e1bc e03c 79bc
00000070: 7e0d de3c d097 a23b b87f 09bd cf93 433d
00000080: d335 14bd 1af6 963c dfe3 3ebd 4f35 06bd
00000090: ede1 8abc f53c 2a3d 9dbd 32bd c462 20bc
000000a0: 5865 8c3b 192f 32bd c61c 30bd 952f 093d
000000b0: 363c fe3c 74f6 1bbd 3ff0 9bbc d8c7 b93b
000000c0: a2c8 b63c fb0c e5bc 4dd1 e8bc be30 943c
000000d0: b19f b2bc e62b 42bd 8c17 083c 2969 433d
000000e0: 1457 17bd 4652 cc3c 9aba fdbc 2200 fb3c
000000f0: b039 d0bb 6697 af3c 2e15 b03c 6027 2bbc
00000100: 14eb 84bc 450c febc 68dd 3ebd ea0f 84bc
00000110: 9513 3b3d 61c6 443d f297 26bd 7501 323d
00000120: 78f0 4bbc 580d 37bd 1f8d 113d 4e36 f73c
00000130: 280c 75bc 523d d23c 2067 d73a c2e1 38bd
00000140: d200 8d3c d29d 0abd e82d 9ebc 8444 8abc
00000150: c535 a3bc 0662 d23c 7589 263d 403d 34bb
00000160: dca0 6c3c e023 10bb 846b 13bd ddd6 34bd
00000170: 0ef5 c03c 00d6 9b3b e8f0 13bc 0eb2 a03c
00000180: eaf9 da3c 476e 063d e612 ff3c 4042 b3bb
00000190: 28ab 61bc ae20 cd3c 848a 613c 7400 17bd
000001a0: 8cbf 5b3c b547 d9bc da54 d9bc f9a2 3a3d
000001b0: 1025 df3b 4705 0a3d 58e1 fdbb a22a e2bc
000001c0: f076 663b df5d 2ebd 5da1 2b3d d68c 94bc
000001d0: 9fe8 bdbc 4e89 9f3c 8156 3e3d f076 1b3b
000001e0: e0fe f0ba fe21 e23c a30e 1b3d fa1b 05bd
000001f0: 862a 04bd 8cf3 cabc a0c7 ad3b c81a 613c
00000200: adc8 233d 040f 88bc 2b2d 063d 32d1 993c
00000210: 7e4c a33c 5e92 8a3c f156 debc 184f d43b
00000220: 6811 40bd 1c0c 063c 22c0 ebbc 4846 403c
00000230: df58 0d3d 0066 dcba 7a0c 81bc 60f2 aebb
00000240: 01e2 17bd f904 273d de5c d83c 2ebe 903c
00000250: 36e7 0dbd df7e 2a3d 88ea f8bb 78e7 9cbb
00000260: 2f23 3b3d 5dd5 8bbc c092 1f3c 7f7f d4bc
00000270: 1494 4a3c 80a1 7abb ab97 3b3d c3fa 1f3d
00000280: 690f 2b3d 08b9 44bd f6b1 23bd 4773 0e3d
00000290: fe4c bc3c 24cd 323c 0ebc af3c da19 2cbd
000002a0: 6a9e ee3c 066f ef3c d4a4 6bbc e818 173c
000002b0: ebf0 42bd f84f 14bc 5f9e 163d be4d de3c
000002c0: aba0 11bd 0639 34bd 008e 20bc 1aef 15bd
000002d0: c840 50bc f383 0f3d 0068 a13b bba8 023d
000002e0: 0d47 f5bc da1b ebbc a809 be3b 7ba1 1cbd
000002f0: 5663 10bd 4390 1c3d f6db 10bd d4d7 41bd
00000300: ea32 f63c 086a d73b d79c 0a3d 50ee e8bc
00000310: 379b a3bc 5159 8ebc 3a5a ae3c bbe1 16bd
00000320: c020 8f3b 50b0 a1bb 106d 39bc aab6 ea3c
00000330: 8e9d 2fbd 91e6 383d 7cee 1b3c 61c1 053d
00000340: 17ca 39bd b68d ab3c e000 c93a 7fbe 213d
00000350: 13a2 2fbd 3dad 153d 275a c8bc 989f d7bb
00000360: 46f8 c23c 789b 023c 6065 ecbc 0829 043c
00000370: 87f3 25bd 18ff eebc 10c9 44bb 482e 903b
00000380: 92cc 05bd fe7a 8c3c 431a 083d 28bc 0d3c
00000390: 00ed 48ba 006a c9ba 8163 22bd 1aff 883c
000003a0: e136 233d 140b 22bd 4850 5e3c ae77 c93c
000003b0: c832 1cbc b15c 213d 7ea5 b33c 0eb4 1fbd
000003c0: 2fbf e6bc 1f00 003d dad2 c13c 68b9 3d3c
000003d0: cf64 003d 403e 48bc 6482 753c a897 51bc
000003e0: dec5 0dbd b4e3 5f3c 0b66 f8bc a9f2 debc
000003f0: b5a0 233d 003a c6b8 bd2f 1f3d 1ff7 02bd

conv2.bias f4 [7]
-0.037802413 -0.04802153 0.043283794 -0.027630966 -0.018117009 0.01504438 -0.022151068
00000000: b4d6 1abd 39b2 44bd 594a 313d 565a e2bc
00000010: 1f6a 94bc b47c 763c 2876 b5bc

onnx::MatMul_24 f4 [3, 432]
0.34939617 -0.35217088 -0.18706658 -0.32521763 -0.25314775 -0.52843446 0.14572614 0.0951125
0.24616224 -0.53037584 -0.56454474 -0.33217907 -0.52189267 -0.15692484 0.33400208 0.24364102
0.4940561 -0.15122795 -0.37519842 0.57679 0.43998837 -0.40470922 -0.31981364 -0.21393853
0.28771776 -0.19125262 0.5271205 -0.048505723 0.55843043 0.3059104 0.39974767 0.22827715
0.5064665 -0.50548387 0.45991492 -0.3642319 0.23871613 -0.45071125 -0.25510928 -0.5470378
0.07993257 0.54095566 0.42733526 -0.48704052 -0.36196116 0.5148611 0.40579152 0.46181107
-0.48934093 -0.5692113 0.4285319 0.53656065 0.040301323 -0.19627076 0.061945856 -0.17776296
0.5133953 -0.50647604 -0.55224186 0.40334046 0.058184743 0.18814534 0.47007513 0.20080566
-0.13305038 -0.5620962 0.47461534 -0.23141113 0.39627475 -0.27251297 -0.26840168 0.3853218
-0.1677728 -0.4528043 -0.40490502 -0.50821346 -0.48274258 -0.21843174 -0.18535131 -0.26754266
0.22302419 -0.30580008 -0.53504324 -0.115790874 -0.48621356 -0.11298287 0.07614452 0.21396726
0.21938086 0.030470252 -0.19061503 -0.25627244 0.02761209 0.5215831 -0.25312063 -0.07705045
-0.12593603 0.21068472 -0.27714783 -0.04771459 0.5479412 -0.107533395 0.21008933 0.28249103
0.10868341 -0.17815864 -0.45375085 -0.3898185 -0.48984426 0.18353492 -0.3089088 0.50945425
-0.4161358 0.18067318 -0.15379268 -0.50091916 -0.441441 0.31415516 0.066812515 -0.08540517
0.4777435 0.037005603 -0.029585898 -0.27268276 -0.25247753 0.3285672 -0.096037745 -0.08284879
0.43182802 -0.16464686 -0.019287527 -0.20452693 0.56755364 -0.23350507 -0.38308376 -0.060139537
0.5642283 0.09845483 0.09286171 0.2667851 0.45505774 0.09758413 -0.5654915 -0.5318957
-0.07648277 0.36202192 0.14773029 0.3461427 0.37157506 -0.26048627 -0.10682386 0.44812334
-0.14494026 -0.13350394 0.35847217 -0.02585435 -0.4415458 0.36253744 -0.52011865 0.20457047
0.3163995 0.2105189 0.06936777 0.18444681 -0.31746608 -0.244829 0.463318 -0.16872299
0.4008643 -0.21569255 -0.090721995 0.44237864 0.086282015 0.14785296 -0.30443534 0.050786376
0.31437558 -0.26343048 -0.16055581 -0.057677865 0.07020342 0.4455943 -0.47928917 -0.39233023
-0.14219171 0.25322574 0.21579278 0.4012689 0.12981373 0.41794032 -0.19575697 -0.124209344
-0.33902073 0.008487999 0.03557372 0.43885052 0.14547306 -0.19325793 0.13510925 -0.0149694085
0.15026361 0.04734069 0.38340247 0.49479425 0.09890938 -0.43978035 0.24407125 0.3525195
0.25758535 0.23256648 0.33515912 -0.4657185 0.17012286 0.028649032 -0.17585862 0.033729315
0.13007116 0.31264037 -0.082190394 -0.56508464 0.1541518 0.18679893 -0.3956379 0.3788764
-0.005890429 -0.19240922 -0.4901579 -0.4783941 0.16726446 -0.048154175 0.06665105 -0.25397494
0.16426069 0.052084446 0.12674046 -0.11738315 0.0014257431 0.40216374 0.5386145 0.33519745
0.35177916 -0.28996176 0.06169468 -0.1735293 0.53211236 -0.30804387 0.4992683 0.31410092
0.4097368 0.433627 -0.08740097 0.5170151 -0.2235196 0.19210118 0.54810464 -0.037252247
00000000: 0ee4 b23e be4f b4be 628e 3fbe ed82 a6be
00000010: 959c 81be 7b47 07bf 3c39 153e 58ca c23d
00000020: f411 7c3e b6c6 07bf 0186 10bf 6013 aabe
00000030: c29a 05bf e8b0 20be 5202 ab3e 087d 793e
00000040: ecf4 fc3e 80db 1abe 021a c0be 82a8 133f
00000050: 2846 e13e 0c36 cfbe 9dbe a3be b412 5bbe
00000060: be4f 933e bad7 43be 5ef1 063f f0ad 46bd
00000070: 4cf5 0e3f 4aa0 9c3e baab cc3e 7cc1 693e
00000080: caa7 013f 6467 01bf f879 eb3e 9b7c babe
00000090: 0072 743e a0c3 e6be af9d 82be ab0a 0cbf
000000a0: b0b3 a33d 127c 0a3f b0cb da3e 605d f9be
000000b0: f952 b9be f0cd 033f e8c3 cf3e 8072 ec3e
000000c0: e58a fabe d5b7 11bf 8868 db3e 0a5c 093f
000000d0: 0013 253d 34fb 48be f0ba 7d3d 7e07 36be
000000e0: e06d 033f 6aa8 01bf b95f 0dbf a482 ce3e
000000f0: 2053 6e3d 2ca9 403e b0ad f03e 00a0 4d3e
00000100: 5c3e 08be 89e5 0fbf c800 f33e 0af7 6cbe
00000110: 86e4 ca3e d286 8bbe f26b 89be e648 c53e
00000120: a2cc 2bbe f7d5 e7be b64f cfbe 471a 02bf
00000130: 092a f7be 92ac 5fbe bccc 3dbe 5afb 88be
00000140: 7460 643e d491 9cbe 98f8 08bf c423 edbd
00000150: fcf0 f8be 9063 e7bd a8f1 9b3d 3c1a 5b3e
00000160: 60a5 603e c09c f93c 9630 43be 2436 83be
00000170: c032 e23c 7886 053f 0799 81be a0cc 9dbd
00000180: 60f5 00be bcbd 573e 52e6 8dbe 6070 43bd
00000190: e045 0c3f 783a dcbd a821 573e aaa2 903e
000001a0: 6895 de3d 386f 36be 0852 e8be 4a96 c7be
000001b0: decc fabe 94f0 3b3e 4b29 9ebe 986b 023f
000001c0: c00f d5be 6402 393e d47b 1dbe 3d3c 00bf
000001d0: 8e04 e2be f2d8 a03e 00d5 883d e8e8 aebd
000001e0: cc9a f43e 3093 173d 205e f2bc 139d 8bbe
000001f0: bc44 81be f639 a83e 70af c4bd a0ac a9bd
00000200: 9018 dd3e 3099 28be e000 9ebc 826f 51be
00000210: 324b 113f f41b 6fbe 8e23 c4be e054 76bd
00000220: 4471 103f b0a2 c93d 482e be3d 0e98 883e
00000230: 54fd e83e 30da c73d 0dc4 10bf 512a 08bf
00000240: 00a3 9cbd f05a b93e 9c46 173e 9e39 b13e
00000250: 163f be3e 755e 85be 78c6 dabd 6c70 e53e
00000260: 386b 14be 42b5 08be aa89 b73e 80cc d3bc
00000270: 4b12 e2be 829e b93e 7f26 05bf ec7a 513e
00000280: 1eff a13e 4492 573e b010 8e3d a0df 3c3e
00000290: ea8a a2be 74b4 7abe 0438 ed3e b8c5 2cbe
000002a0: 163e cd3e 82de 5cbe 74cc b9bd 747f e23e
000002b0: a0b4 b03d c466 173e f3de 9bbe 6005 503d
000002c0: d6f5 a03e 5ce0 86be be68 24be a03f 6cbd
000002d0: d0c6 8f3d f024 e43e 6465 f5be 82df c8be
000002e0: b49a 11be cea6 813e c8f8 5c3e 1e73 cd3e
000002f0: e4ed 043e 46fc d53e 8474 48be 7861 febd
00000300: 2094 adbe 4011 0b3c c0b5 113d 04b1 e03e
00000310: e4f6 143e 68e5 45be 145a 0a3e 4042 75bc
00000320: b4de 193e 50e8 413d 544d c43e ac55 fd3e
00000330: 0091 ca3d e42a e1be d0ed 793e 707d b43e
00000340: 3ae2 833e e825 6e3e fa99 ab3e a872 eebe
00000350: b034 2e3e 60b1 ea3c 4814 34be c027 0a3d
00000360: 6031 053e 6612 a03e 7053 a8bd 63a9 10bf
00000370: f8d9 1d3e 3848 3f3e 0d91 cabe 16fc c13e
00000380: 8004 c1bb ec06 45be faf5 fabe 12f0 f4be
00000390: 6047 2b3e 503d 45bd 5880 883d 0109 82be
000003a0: f433 283e 8056 553d 40c8 013e 9466 f0bd
000003b0: 00e0 ba3a 68e8 cd3e a4e2 093f 009f ab3e
000003c0: 661c b43e de75 94be 90b3 7c3d aab1 31be
000003d0: 8438 083f edb7 9dbe 18a0 ff3e d6d1 a03e
000003e0: 06c9 d13e 5c04 de3e 48ff b2bd 1a5b 043f
000003f0: 52e2 64be 2cb6 443e 9650 0c3f d095 18bd

onnx::MatMul_25 f4 [7, 1]
-0.03315538 -0.106111646 -0.10420385 -0.05014649 0.35347018 -0.015746921 -0.043289155
00000000: f0cd 07bd 1051 d9bd d468 d5bd 6866 4dbd
00000010: 0bfa b43e b0ff 80bc f84f 31bd
