model/fc_model.ckpt (torch, 21586 bytes, 5 tensors)

fc1.weight f4 [432, 3]
000000 c0 cf 42 bc 2d 2e b8 be 9e 8b 92 3e c8 67 c2 3d
       -0.011890352 -0.3597273 0.28622144 0.09492451
000010 78 17 cf bd e2 d5 b3 3e a8 25 b4 bd 2c 6c 1f 3e
       -0.10111898 0.35124117 -0.08796245 0.15568608
000020 64 67 d8 3e 04 4e 05 3f 10 f5 95 bd c6 59 86 3e
       0.4226638 0.5207217 -0.073221326 0.26240367
000030 b4 36 2e 3e ee c7 db be d0 30 8c bd 04 2b 50 be
       0.17013055 -0.42925972 -0.06845248 -0.20328909
000040 40 8c 3e bc ba c6 d6 3e c9 30 d7 be 0c b9 94 3e
       -0.011630118 0.4194849 -0.42029408 0.2904743
000050 d8 7c 53 3e 78 e4 08 3f 14 c6 f1 be 01 62 d5 be
       0.20653093 0.53473616 -0.47221434 -0.41676334
000060 c8 9c be 3e b4 09 c4 bd fc 62 04 bf f4 08 e0 3e
       0.3722899 -0.09572163 -0.5171354 0.4375683
000070 38 8c b5 be c2 6f 06 3f 58 18 aa 3d 14 a4 de 3e
       -0.3545854 0.5251428 0.083054245 0.43484557
000080 36 34 94 3e 26 c2 0a bf 28 06 b2 3d 70 6d 23 be
       0.28946084 -0.54202497 0.086925805 -0.15959716
000090 00 90 ab ba 28 30 56 3e 4c 63 60 3e c0 39 05 3f
       -0.001308918 0.20916808 0.21912879 0.52041245
0000a0 0c 06 f4 be e0 a7 d9 3e fa 2a cc 3e ea 06 92 3e
       -0.47660863 0.4251089 0.3987654 0.285209
0000b0 36 b7 e4 be 60 63 48 3d 92 db b8 be 66 e6 2d be
       -0.4467103 0.048922896 -0.3610502 -0.16982421
0000c0 40 e7 e3 3c d8 ac 12 bf 20 0d e8 3d e0 f0 c3 be
       0.02782023 -0.5729499 0.113306284 -0.3826971
0000d0 a0 3e 9a bc 7c 05 98 3e 9c f7 8b be 70 db 72 3e
       -0.01882869 0.29691684 -0.27337348 0.23716521
0000e0 b0 54 2c 3d a2 68 d2 3e ca c5 75 be 5a ac 94 3e
       0.04207295 0.41095454 -0.24001232 0.29037744
0000f0 dc 55 f2 3e fc 2c c9 bd 70 9d cb 3e 5a df b2 be
       0.4733113 -0.09823033 0.39768553 -0.3493603
000100 92 8f 06 3f 91 3c 95 be 31 90 8a be 02 24 b5 be
       0.5256282 -0.2914777 -0.27063134 -0.35379034
000110 28 27 83 bd b2 ad 84 be 9c 2e 06 3e 50 98 41 3e
       -0.06403953 -0.2591377 0.13103718 0.18905759
000120 10 e7 05 bd 02 0b 9d be 78 14 76 3e f0 61 75 3d
       -0.03269106 -0.3067246 0.24031246 0.059907854
000130 96 bb fc be 58 a4 88 be bc 2e 69 3e 64 4e 27 3e
       -0.49361867 -0.26687884 0.22771734 0.16338497
000140 cc 3f d4 bd e0 9d 8b 3d e0 d3 bc 3e b0 65 f3 be
       -0.10363731 0.06817222 0.36880398 -0.4753852
000150 5e b7 9f 3e 48 ad 7b 3e a0 09 f6 3c d0 7a c5 3d
       0.31194586 0.2457782 0.030033886 0.09642565
000160 b0 75 74 bd a4 b5 ce be 06 18 b0 be 78 7a 0a 3f
       -0.059682548 -0.40372956 -0.34393328 0.5409312
000170 d0 6b 29 3e fa 7e 7c be 00 87 9a bc 5c 01 f0 3e
       0.16545033 -0.24657813 -0.018863201 0.46876037
000180 80 7c 99 bd 15 01 0f bf e4 4d e5 be 80 96 cf be
       -0.074944496 -0.55861026 -0.44785988 -0.4054451
000190 12 8d ee be 40 64 14 bd 30 dd e3 be 00 fb 1b 3c
       -0.46592003 -0.03622842 -0.4450469 0.009520292
0001a0 54 00 ca 3e 30 de 30 be dc 42 47 be d4 5c d8 be
       0.39453375 -0.17272258 -0.19459099 -0.42258322
0001b0 b4 0f ec 3e dc 72 8e 3e 96 cb 00 3f ab a6 92 be
       0.4610573 0.27822006 0.5031065 -0.28642783
0001c0 70 27 d0 3d 30 96 3b bd b8 59 60 be a0 a0 1f 3d
       0.10163772 -0.045797527 -0.21909225 0.038971543
0001d0 2c 5b 48 3e 08 87 f3 3e 64 4a 13 bf 80 4a 17 3e
       0.1956603 0.47563958 -0.57535386 0.14774513
0001e0 34 09 ef bd 10 9b af 3e b6 0e 96 3e 94 99 9a be
       -0.11671677 0.3429799 0.293081 -0.30195296
0001f0 20 e5 b4 bd f3 11 e0 be 40 8b 90 3d 24 5e 01 bf
       -0.088327646 -0.43763694 0.0705781 -0.5053427
000200 40 dd 8c bd ac 75 a6 3e 88 56 48 3e 00 cd f7 be
       -0.068781376 0.32511652 0.19564259 -0.4839859
000210 12 eb 95 be 49 8d ac be 00 c2 03 bc e0 58 ed bd
       -0.29280907 -0.33701542 -0.008041859 -0.11589217
000220 28 80 d2 be e7 4d b8 be 01 4d 0f bf 3e 4a 1b be
       -0.411134 -0.35996935 -0.55976874 -0.1516504
000230 6c 97 fe be 25 ed 94 be c0 f8 30 bd 22 da 81 be
       -0.497249 -0.29087177 -0.043205976 -0.25361735
000240 30 42 fd 3e f4 6f 50 3e e0 68 d2 be 4c f2 73 3e
       0.4946456 0.20355207 -0.41095638 0.23822898
000250 e0 14 8c 3e 3f 31 fc be 90 24 0e 3d 99 10 10 bf
       0.27359676 -0.49256322 0.034702837 -0.56275326
000260 ec 51 c9 be 14 4a 31 be 60 60 bd bc d0 88 0a 3f
       -0.39320314 -0.17313415 -0.023117244 0.5411501
000270 92 a2 8d be 50 ff 10 3f 8a 4e b7 3e b8 33 3a 3e
       -0.27663094 0.56639576 0.35802108 0.18183792
000280 e6 14 c6 3e 41 f2 80 be 2e 98 c3 3e 28 b3 8c bd
       0.3868782 -0.25184825 0.3820204 -0.06870109
000290 b8 29 a8 3e e4 6f 45 3e 42 2c 0a bf 7e e1 03 3f
       0.3284433 0.19280964 -0.5397378 0.5151595
0002a0 ae a4 98 be be 44 e4 be 9c c2 f5 bd d8 fb c1 bd
       -0.2981314 -0.44583696 -0.120000094 -0.094718635
0002b0 04 71 da 3e bc 7e dc bd c0 b0 fe bc ec e3 b4 be
       0.4266435 -0.1076636 -0.03109014 -0.3533014
0002c0 1a 9a 97 3e 60 a2 dc be 5c 32 09 3f e6 07 d5 3e
       0.29609758 -0.43092632 0.5359247 0.4160759
0002d0 98 5a 89 3d 44 63 c8 be 7c 04 da bd 98 42 28 3e
       0.067067325 -0.39138234 -0.106453866 0.16431653
0002e0 80 f9 ee 3d a0 69 86 3c a6 78 99 3e c0 f2 b0 3c
       0.11668682 0.016407788 0.2997486 0.021600127
0002f0 c7 90 86 be fc 1f c8 3e 9c dc 4b 3e d8 f2 da be
       -0.2628233 0.39086902 0.19908375 -0.427634
000300 3c 5f fb be f2 fd a3 3e 6a f2 b0 3e 02 45 0d bf
       -0.49096096 0.32029682 0.34559947 -0.5518342
000310 26 cb a6 be 3a 55 ba 3e 02 97 d7 3e b6 1a b9 be
       -0.32576865 0.36393148 0.42107397 -0.3615319
000320 30 68 2f 3e c8 9d 8b 3e b0 65 a4 3e d8 22 e6 3d
       0.17129588 0.27268815 0.3210883 0.11237115
000330 4e 9a d6 3e 90 ad 85 3d 60 3c 47 bd 3e a7 0c 3f
       0.419146 0.06527245 -0.048641562 0.5494269
000340 26 e8 af 3e 15 d3 9e be ba ae a3 3e d8 60 01 3f
       0.34356803 -0.31020418 0.31969243 0.50538397
000350 40 5d 06 be 65 40 0e bf 48 8b 0f bf 90 eb 11 3d
       -0.1312151 -0.5556701 -0.560719 0.03562504
000360 30 8a 99 3e d0 d8 1d bd 00 0f d9 3e 48 16 26 3e
       0.2998824 -0.038536847 0.42394257 0.16219437
000370 80 98 9e bb 1e 3f 0e 3f 6b 4a 11 bf 48 b7 98 be
       -0.0048399568 0.5556506 -0.5675418 -0.29827332
000380 26 76 0e be 28 87 02 bf 78 78 18 3e a8 6d 0f 3e
       -0.13912258 -0.5098748 0.14889705 0.14006674
000390 50 9a 81 3d 4a e5 8d be 3c 7e 84 3e 24 b1 f3 be
       0.06328261 -0.27713996 0.2587756 -0.47596085
0003a0 40 02 5d be 08 88 0c 3f 72 ab 08 be 04 ca f6 be
       -0.2158289 0.5489507 -0.13346651 -0.48201
0003b0 80 27 44 bd d0 3e 9a 3d c6 f1 a8 3e b0 77 49 be
       -0.047889233 0.07531512 0.32996958 -0.19674563
0003c0 28 0d 02 be 36 e8 01 3f 90 57 90 bd b0 de 73 3d
       -0.12700331 0.5074495 -0.07047951 0.059538543
0003d0 20 75 a6 3d 23 68 95 be 3a 9f 9d be b2 c6 9e 3e
       0.081278086 -0.29181013 -0.30785543 0.31010967
0003e0 5d 7a 98 be 40 aa 03 bc a8 32 f8 3d 0c 4e d0 be
       -0.29780856 -0.008036196 0.12119037 -0.40684545
0003f0 48 33 93 3d 90 46 bc be 80 58 98 3e d2 64 bc be
       0.071875155 -0.36772585 0.2975502 -0.3679567

fc1.bias f4 [432]
000000 ec 14 cd 3e 20 b6 33 bd 2a c5 5f be 0c 8a ed 3e
       0.40055025 -0.04387486 -0.21852556 0.46394384
000010 00 90 41 ba 00 d2 98 ba eb 8b 0e bf 48 37 d3 3e
       -0.00073838234 -0.0011659265 -0.5568225 0.41253114
000020 2f f1 11 bf 70 98 73 3d 40 71 3e 3d 06 0e a1 be
       -0.5700864 0.059471548 0.046494722 -0.31456012
000030 d4 71 48 be 6a a0 a3 3e e8 46 66 3e c0 4f 8b 3c
       -0.19574672 0.31958324 0.22487986 0.017005801
000040 74 44 cb be 1c 7f fc 3e 8a 79 e2 be 7c 6f 77 3e
       -0.39700663 0.49315727 -0.44233352 0.24163622
000050 92 be 0c bf 80 35 62 3e ff da b0 be c0 81 f6 3e
       -0.5497829 0.22090721 -0.3454208 0.48145866
000060 d0 9a 2e bd c2 4e d7 3e e4 d2 e2 3e fe 48 06 bf
       -0.04262811 0.42052275 0.44301522 -0.5245513
000070 3a 28 c1 be 28 0a f3 3d e0 e7 5a 3e 60 09 ed 3e
       -0.37726003 0.118671715 0.21377516 0.46296215
000080 56 46 3d be 56 6a 74 be c2 0f b2 be 28 ba 43 be
       -0.18483862 -0.23868689 -0.34777647 -0.19113982
000090 70 02 e0 3d d0 44 73 3d f4 85 28 3e b2 0f 45 be
       0.10937965 0.059391797 0.16457349 -0.19244269
0000a0 e3 2e ab be 92 12 da be 69 49 a0 be 40 18 7f bd
       -0.3343421 -0.42592293 -0.31306008 -0.062278986
0000b0 dc 04 cb bd 58 ae a5 bd 55 08 d2 be d1 82 da be
       -0.09913036 -0.08089894 -0.41021982 -0.4267793
0000c0 44 cc 98 be 54 fa aa be 7a c5 4c be 20 fa 66 3d
       -0.29843342 -0.3339411 -0.19997206 0.05639088
0000d0 6e 22 07 3f 61 ab ea be ec 00 f5 3e 42 ad ec be
       0.5278691 -0.45833877 0.47852266 -0.46225935
0000e0 30 f5 ad 3e 46 b3 87 be 86 e4 b6 3e 68 36 dc 3e
       0.33976126 -0.26503962 0.35721225 0.4301026
0000f0 8e 8b 8a 3e 90 4d ff 3d 16 06 03 3f 50 d7 c4 bd
       0.27059597 0.12465966 0.5118116 -0.0961138
000100 82 2e 7a be 62 d3 80 be b2 1d 0e bf 80 34 9f 3c
       -0.24431804 -0.25161272 -0.5551406 0.019434214
000110 5a c8 bd 3e d8 9b ee 3d 80 33 bf bd 73 e9 97 be
       0.3706692 0.116508186 -0.09335995 -0.29670295
000120 20 73 16 3d 74 a6 fd 3e 56 71 40 be 2e b8 02 3f
       0.036730886 0.49541056 -0.18793234 0.51062286
000130 00 7a be 3d 80 1b 95 3b da fd 94 be 5c 4a 93 3e
       0.093006134 0.0045503974 -0.29099923 0.2876767
000140 24 7f de 3e d6 e8 06 bf 10 43 e9 3e 66 af 09 bf
       0.43456376 -0.5269903 0.45558977 -0.5378326
000150 fc 58 ea 3e c6 2e 0f 3f 00 df 18 3e dc 67 0c 3e
       0.45771015 0.55930746 0.14928818 0.13711494
000160 a8 18 fd 3d c4 da 17 3e bf 6b a3 be c0 cb d3 be
       0.123582184 0.14829546 -0.3191814 -0.41366386
000170 50 2f 79 3d 2c eb be 3e 02 02 4d be 91 97 90 be
       0.060836136 0.37288797 -0.20020297 -0.28240636
000180 14 d0 04 3e aa 66 f7 be 86 10 0b 3f a4 82 fe 3e
       0.1297 -0.48320514 0.5432209 0.49709046
000190 b7 fa be be 2c db db 3e 94 4a 04 3f 48 98 1f be
       -0.37300655 0.42940652 0.516763 -0.15585434
0001a0 ee a7 be 3e a4 70 6c be a6 51 08 be 46 b7 0d 3f
       0.37237495 -0.23089844 -0.13312396 0.5535778
0001b0 67 07 d1 be c2 57 c1 3e 78 78 fb bd 7c c3 69 3e
       -0.4082596 0.37762266 -0.12278837 0.22828478
0001c0 c6 7b ba be fc 57 9c 3e 29 3f 90 be 88 8f 9b bd
       -0.36422557 0.30535877 -0.28173187 -0.07595736
0001d0 74 39 c2 3e f0 bf 4b 3d 80 36 63 bc 00 b6 f3 3e
       0.37934458 0.049743593 -0.013867974 0.47599792
0001e0 ae 23 09 bf 2b 5e a0 be d8 e2 c9 be d8 0a 09 3e
       -0.5357007 -0.31321844 -0.3943088 0.13383043
0001f0 1e 99 a8 3e 68 12 08 3e 6f ce 12 bf 1c ff 89 3e
       0.3292932 0.13288271 -0.5734624 0.26952446
000200 90 e3 58 bd a2 ea a9 3e 00 76 f1 3e 0c ce 8d 3e
       -0.052951396 0.33186823 0.4716034 0.27696264
000210 d0 44 4d bd 1c a0 fb 3e 5c bd ec 3e 42 be 82 be
       -0.050114453 0.4914559 0.4623822 -0.2553578
000220 ac fb 5c 3e 40 4c fe 3e 62 ab b3 3e 36 c1 2f be
       0.2158038 0.4966755 0.35091692 -0.17163548
000230 d0 b1 f9 3d 50 7b 0d bf 4c c9 45 3e 60 84 c1 3c
       0.12192118 -0.55266285 0.1931507 0.023622692
000240 e4 7f 1b 3e 52 89 84 3e ca 38 b0 3e 10 d7 8a be
       0.15185505 0.25886017 0.34418327 -0.27117205
000250 c0 da 76 3d 92 37 a9 3e 50 1e df 3d 66 92 eb be
       0.06026721 0.3305021 0.108944535 -0.4601013
000260 20 7b b6 bc 9c 35 19 3e d6 07 ce 3e 2e ae 61 be
       -0.022275507 0.14961857 0.40240353 -0.220391
000270 d8 d0 a7 3e c8 61 8f be 48 81 6e 3e e2 a0 d5 be
       0.32776523 -0.2800429 0.23291504 -0.41724306
000280 9c ed 09 bf e8 9d 0e bf ec f2 ea 3e 0c b4 b4 be
       -0.5387819 -0.55709696 0.4588846 -0.35293615
000290 f0 92 53 3d 04 33 fc 3e 50 86 96 3e 8a f7 7c be
       0.051653802 0.49257672 0.29399347 -0.24703804
0002a0 e8 2c d2 3d 70 d4 bc 3e f0 17 74 3d fe 82 1e be
       0.102624714 0.36880827 0.05959314 -0.15479657
0002b0 f6 a1 09 3f 30 f3 51 bd f4 3d c3 3e 12 5b d6 3e
       0.5376276 -0.051257312 0.38133204 0.41866356
0002c0 d4 0b e1 3e 28 a1 e6 3e d1 48 0d bf 12 14 b8 3e
       0.43954337 0.45044827 -0.55189234 0.35952812
0002d0 80 80 5f bd c0 a3 03 3f a0 7b cf 3d 60 e2 e0 3e
       -0.054565907 0.5142174 0.101310015 0.4392271
0002e0 d8 f2 64 3e ac 1b 73 3e 76 6d 12 3f 1d cb db be
       0.22358263 0.23741025 0.57198274 -0.429284
0002f0 52 76 9b 3e 84 4b c4 bd 98 20 f2 3e cc 41 10 be
       0.3036371 -0.09584716 0.47290492 -0.140876
000300 48 b6 e7 3e 7c 7a 74 3e 40 52 f3 bd c8 7d 99 be
       0.45256257 0.23874849 -0.11880922 -0.29978776
000310 0c c5 f1 3e a8 88 3e 3e 8e 72 1a be c6 af 6d be
       0.47220647 0.18606818 -0.15082762 -0.23211583
000320 aa 31 d0 3e 52 3d 0c bf a2 43 b6 3e 40 65 1a 3e
       0.4066289 -0.5478107 0.35598475 0.15077686
000330 56 33 36 be 38 43 9a 3e b3 69 12 bf 10 c3 74 3e
       -0.1779302 0.3012941 -0.57192534 0.23902535
000340 b8 31 9c 3d 73 89 c4 be bc 0d b2 bd 40 0c 4d 3e
       0.076266706 -0.38386115 -0.08694026 0.20024204
000350 34 07 70 3e 0e fc dc be 50 f9 8d bd a6 61 03 3f
       0.23440248 -0.43161052 -0.06932318 0.51320875
000360 7a 77 02 bf 60 8d a9 bd a0 f1 95 bd 2c 8c 9e 3e
       -0.50963557 -0.08278918 -0.07321477 0.30966318
000370 56 fd bb 3e 54 ad bb bd 2e 1c b6 3e 18 2f 99 3d
       0.36716717 -0.09163919 0.35568374 0.074796855
000380 7c e2 ee 3e 26 82 d7 be d4 c3 10 bf 74 0c 46 3e
       0.4665717 -0.42091483 -0.5654881 0.19340688
000390 ce a8 0b 3f ec c3 04 3e 3c c2 6b 3e 80 02 ef be
       0.5455445 0.12965363 0.23023313 -0.46681595
0003a0 00 09 45 3b c8 a9 e3 bd 64 c6 c6 be e4 3a de 3e
       0.003006518 -0.111163676 -0.38823235 0.43404305
0003b0 05 2e 83 be 7e d8 dd be 18 92 25 be b8 45 e2 3d
       -0.25621048 -0.43329233 -0.16169012 0.11048454
0003c0 72 4a 84 3e 06 cb 05 3f b1 3a bd be fc a7 bf be
       0.25838047 0.52262914 -0.3695884 -0.3743285
0003d0 ba 43 88 3e 92 8f cd 3e 44 db f5 3e ea 51 02 bf
       0.2661417 0.40148598 0.4801885 -0.5090624
0003e0 a8 5a 10 3f 44 9a fb 3e f0 fe 42 3d d0 5f 7f 3e
       0.5638833 0.49141133 0.04760641 0.24938893
0003f0 60 ea 64 bd 0e 42 d6 3e c2 61 95 3e 94 d3 85 3e
       -0.05588758 0.4184727 0.29176146 0.26137984

fc2.weight f4 [7, 432]
000000 12 d4 2c bd 38 e7 98 bc 4b bb 9c bc 72 95 27 bd
       -0.042194434 -0.018664941 -0.019132277 -0.040914007
000010 28 0f 08 bd 74 c8 48 3c 9b b2 0d 3d c0 32 87 bc
       -0.03321758 0.012254823 0.03459416 -0.016503692
000020 fa 78 d7 3c f8 99 fd bc a0 64 4e 3b 36 45 b0 3c
       0.026302803 -0.030957207 0.0031493083 0.021517377
000030 a0 ed 22 bb 66 92 d4 3c 60 71 73 3b 37 40 15 3d
       -0.0024860874 0.025948714 0.0037146434 0.036438193
000040 ca 69 a4 3c 00 dc 3e bc c7 d9 a2 bc 72 9d e6 bc
       0.020069975 -0.011649132 -0.019879235 -0.028151248
000050 62 23 ef 3c 85 48 41 3d 80 b9 89 39 ce 68 88 bc
       0.029191677 0.0471883 0.00026268885 -0.016651537
000060 30 ff 09 bd 94 c9 18 bc 12 99 04 bd fe ce de 3c
       -0.03369063 -0.009325404 -0.03237254 0.027198311
000070 e5 12 44 bd 98 bb 29 bd a6 a4 c3 3c 82 d6 19 bd
       -0.04786958 -0.04143867 0.023882221 -0.037558086
000080 0c ba 11 bd c4 e2 a8 bc 0c 8a 89 bc cf 38 2d 3d
       -0.03557782 -0.020615943 -0.016789459 0.042290505
000090 eb cc 40 bd bf 96 12 bd bb 1d 2b bd 9f 39 11 3d
       -0.047070425 -0.035788294 -0.0417764 0.035455342
0000a0 46 e1 fb 3c 30 3a c9 3b c2 41 07 bd 9c dd 5a bc
       0.030747067 0.0061409697 -0.033021696 -0.0133585
0000b0 09 b2 99 bc f6 21 8d 3c a6 be e6 3c e2 90 ab 3c
       -0.018761652 0.017228108 0.02816708 0.020943109
0000c0 2d 15 31 3d 97 65 2b 3d 7a ee ec 3c e8 a8 9b bb
       0.043233085 0.04184493 0.028922308 -0.00475036
0000d0 40 4f ec 3b bd 40 e5 bc d0 25 76 bb 53 9e cd bc
       0.007211596 -0.027984971 -0.003755916 -0.025099909
0000e0 54 8b 00 3c cc 40 fa bc 00 23 a0 ba 22 e2 ce 3c
       0.007845718 -0.030548476 -0.0012217462 0.025254313
0000f0 1c e8 23 3c c1 83 22 3d 16 6d c5 3c f3 38 04 3d
       0.01000407 0.03967643 0.024099868 0.032280874
000100 da f9 fb 3c ae 7e bb 3c 28 f4 34 bc af e8 34 3d
       0.030758787 0.022887554 -0.0110445395 0.044167217
000110 ac 9e 1d bd 74 29 5e bc 98 50 5e 3c 07 d5 0d 3d
       -0.0384814 -0.013559688 0.01356902 0.034626987
000120 dc 26 2c bc 6a 50 eb bc 1c 40 d8 bc 14 67 87 bc
       -0.010507312 -0.028724868 -0.026397757 -0.016528644
000130 8d ab 2d 3d e1 0e 8d bc e1 eb 37 3d 0e 9e 8d 3c
       0.04239993 -0.017219009 0.044902686 0.01728728
000140 02 55 f3 3c 2c e5 10 3c d8 c0 e0 3b 02 61 c3 bc
       0.02970362 0.008843701 0.0068589263 -0.023849968
000150 3b 1d 0a 3d a0 a7 5a bc 22 6d df 3c 3e d1 21 bd
       0.033719283 -0.013345629 0.027273718 -0.03950619
000160 28 3c 20 bc 60 d0 19 bb 95 d0 1d 3d 46 f4 8e 3c
       -0.009779967 -0.0023470148 0.038528997 0.017450463
000170 f7 77 30 3d 7f ce 06 3d 3d 05 2b 3d 96 be c9 3c
       0.043083157 0.032911774 0.041753042 0.024627011
000180 27 54 3f 3d ac 2a 3d 3c 44 9b 6e 3c 07 a3 bb bc
       0.046711113 0.011545818 0.014563385 -0.022904886
000190 93 ca 31 3d 50 0d 40 bb f0 94 34 bd f9 12 25 bd
       0.04340608 -0.002930481 -0.04408735 -0.040301297
0001a0 64 ea 16 bd 4b 40 1c bd 86 d6 ec 3c e9 e9 04 bd
       -0.036844626 -0.038147252 0.028910886 -0.032449637
0001b0 8c 12 fc bc 68 28 12 bc db 39 43 bd e0 45 2b bb
       -0.030770563 -0.008920766 -0.047662597 -0.0026134178
0001c0 d8 98 8f bc e0 e3 58 bc 00 a3 69 3b 39 0b a1 bc
       -0.017528936 -0.013237923 0.0035650134 -0.019658672
0001d0 79 57 06 3d 31 73 e6 bc 84 27 09 bd ec 0f 0c bd
       0.032798264 -0.0281311 -0.03348495 -0.03419487
0001e0 19 79 22 3d 48 47 8a 3b 1a 2c e8 3c 10 25 53 3b
       0.03966627 0.004219923 0.028341342 0.0032218136
0001f0 ed 6c 33 3d 45 03 23 3d a8 26 3e bc b1 b2 15 3d
       0.04380505 0.03979804 -0.011605896 0.036547367
000200 bc 89 3b bc 02 89 13 bd f3 78 e2 bc c0 ea b4 bb
       -0.011446413 -0.036019333 -0.027645564 -0.0055211484
000210 82 8a be bc b9 1c 24 3d 18 2e 01 bd c0 9e a6 bb
       -0.023259405 0.040066455 -0.0315381 -0.0050848424
000220 55 6e 31 3d a1 62 20 3d 28 91 9a bc 98 8c 8e 3b
       0.04331811 0.03915656 -0.018868044 0.004350256
000230 ff 39 1b bd 32 cb 04 bd 48 85 5e bc 70 c2 d7 bb
       -0.037897106 -0.032420345 -0.013581581 -0.006584458
000240 b4 1d 2e bd 32 93 2e bd f6 69 eb 3c 62 9f 8a 3c
       -0.042508796 -0.042620845 0.02873705 0.016921703
000250 10 24 66 3b 58 f0 f8 bc 91 43 1c bd 04 bf 80 bc
       0.003511671 -0.030388042 -0.038150374 -0.015716083
000260 d6 b9 bc bc 0b 6a dc bc a4 1a 7d 3c ab 5b 2e 3d
       -0.023037832 -0.026906034 0.015448246 0.04256789
000270 93 74 99 bc 1c c1 2e bd 3c 35 41 3c 0a a0 f3 3c
       -0.018732345 -0.042664632 0.011792477 0.029739399
000280 f1 ac 1c 3d 9b 07 29 3d 7c 32 ca bc 95 3d 08 3d
       0.038250867 0.04126702 -0.024682276 0.033261854
000290 5f 3a 15 bd 1b cc 3e 3d 86 cb dd 3c 8e d7 e2 3c
       -0.03643262 0.04658137 0.027074587 0.027690675
0002a0 7f 48 2d bd 29 64 3d bd 0d 5c 31 bd 1a 7e d0 3c
       -0.042305466 -0.0462381 -0.043300677 0.025450755
0002b0 80 08 cc 3b 29 2c 40 bd 8e 4d 1b bd d0 12 8a bc
       0.006226599 -0.046917114 -0.03791576 -0.016854674
0002c0 00 0c dd b9 99 cf 1b 3d bc 3d 6e 3c b8 44 3b bc
       -0.00042161345 0.038039777 0.014541086 -0.011429958
0002d0 80 73 1b 3b de 6d 9b 3c c0 b4 57 3b 71 a4 34 bd
       0.0023719966 0.018973287 0.0032914132 -0.044102136
0002e0 68 9a 0e bc 22 86 83 3c 81 fc f8 bc 83 72 31 3d
       -0.0087038055 0.01605517 -0.03039384 0.043322098
0002f0 99 9d 11 3d 20 79 a7 3b fa 7b eb 3c 12 54 f9 3c
       0.035550687 0.005110875 0.02874564 0.030435596
000300 e9 02 39 3d 0e 80 9c bc 4e be e1 3c 44 db 5a bc
       0.04516879 -0.01910403 0.027556565 -0.013357941
000310 28 92 79 bc 5a e4 b4 3c 04 f3 53 bc 80 10 83 3a
       -0.0152326 0.022081543 -0.012936357 0.0009999424
000320 bf 19 41 3d 94 6d 6b 3c 12 bc 91 3c e3 f3 07 3d
       0.047143694 0.014369387 0.017789874 0.033191573
000330 71 5a 19 bd 58 ae e3 3b dc 29 0a bd 81 a1 91 bc
       -0.037439767 0.0069482736 -0.033731326 -0.017777206
000340 8b 79 b4 bc 46 1e 3c bd 05 dd c3 bc 80 49 69 bb
       -0.022030612 -0.04592731 -0.023909101 -0.0035596788
000350 e8 bd a4 bb 71 0d 41 3d c3 af 21 bd 7c f4 21 3c
       -0.0050275214 0.04713196 -0.03947426 0.00988495
000360 3a 45 a4 3c 00 d8 e3 3b 60 c8 7b bc 33 13 21 bd
       0.020052541 0.0069532394 -0.015367597 -0.03932495
000370 3a c0 dd 3c 21 dc 25 3d 00 e2 c7 b9 52 e7 2f bd
       0.0270692 0.040493134 -0.0003812462 -0.042945214
000380 24 b8 47 bc 64 95 2a bd 24 c3 82 bc 40 3c 3c ba
       -0.012189899 -0.041646376 -0.01596219 -0.0007180609
000390 10 e9 04 bc 73 39 3d 3d 86 cc b5 3c af c4 b8 bc
       -0.008112207 0.046197366 0.022192251 -0.022554724
0003a0 4b d5 06 3d 00 b2 ab bb 0e 7b c1 3c ed 3f 08 3d
       0.032918256 -0.005239725 0.023618247 0.03326409
0003b0 00 13 f2 39 22 52 bd 3c 70 74 16 bd 4d 02 34 bd
       0.00046171993 0.023110453 -0.036732137 -0.043947507
0003c0 4c 95 44 bc 11 3e 2b 3d 8c e8 1a bd 6c 36 d2 bc
       -0.011998486 0.041807238 -0.03781943 -0.025660716
0003d0 9a b2 31 bd dd 0c 8c bc ec 02 94 bc 6f 68 2c 3d
       -0.04338322 -0.017095977 -0.0180678 0.042091783
0003e0 15 0b 23 3d e0 75 f4 ba c8 e4 5b bc de 58 eb 3c
       0.03980549 -0.0018650852 -0.013421245 0.028728899
0003f0 f2 fb 3e bd 29 fa 40 3d f0 47 5b bb 49 b1 11 bd
       -0.046626993 0.04711357 -0.0033459626 -0.035569463

fc2.bias f4 [7]
000000 18 e9 63 bc 05 af 3d bd 41 bf 01 3d ec 87 0b 3c
       -0.013910554 -0.04630949 0.031676535 0.008516293
000010 75 49 9a bc f8 03 86 bc 31 29 bb bc
       -0.018833855 -0.016359314 -0.02284679

fc3.weight f4 [1, 7]
000000 00 bb a5 bd 16 36 53 3e fd 71 29 be c8 98 aa bd
       -0.08092308 0.20626101 -0.1654739 -0.08329922
000010 ea 38 65 3e c4 a0 b9 bd b3 f2 4b be
       0.22384992 -0.09063867 -0.19916801
