model/fc_model.onnx (onnx, 19817 bytes, 5 tensors)

fc1.bias f4 [432]
0	0x3ecd14ec	0.40055025
1	0xbd33b620	-0.04387486
2	0xbe5fc52a	-0.21852556
3	0x3eed8a0c	0.46394384
4	0xba419000	-0.00073838234
5	0xba98d200	-0.0011659265
6	0xbf0e8beb	-0.5568225
7	0x3ed33748	0.41253114
8	0xbf11f12f	-0.5700864
9	0x3d739870	0.059471548
10	0x3d3e7140	0.046494722
11	0xbea10e06	-0.31456012
12	0xbe4871d4	-0.19574672
13	0x3ea3a06a	0.31958324
14	0x3e6646e8	0.22487986
15	0x3c8b4fc0	0.017005801
16	0xbecb4474	-0.39700663
17	0x3efc7f1c	0.49315727
18	0xbee2798a	-0.44233352
19	0x3e776f7c	0.24163622
20	0xbf0cbe92	-0.5497829
21	0x3e623580	0.22090721
22	0xbeb0daff	-0.3454208
23	0x3ef681c0	0.48145866
24	0xbd2e9ad0	-0.04262811
25	0x3ed74ec2	0.42052275
26	0x3ee2d2e4	0.44301522
27	0xbf0648fe	-0.5245513
28	0xbec1283a	-0.37726003
29	0x3df30a28	0.118671715
30	0x3e5ae7e0	0.21377516
31	0x3eed0960	0.46296215
32	0xbe3d4656	-0.18483862
33	0xbe746a56	-0.23868689
34	0xbeb20fc2	-0.34777647
35	0xbe43ba28	-0.19113982
36	0x3de00270	0.10937965
37	0x3d7344d0	0.059391797
38	0x3e2885f4	0.16457349
39	0xbe450fb2	-0.19244269
40	0xbeab2ee3	-0.3343421
41	0xbeda1292	-0.42592293
42	0xbea04969	-0.31306008
43	0xbd7f1840	-0.062278986
44	0xbdcb04dc	-0.09913036
45	0xbda5ae58	-0.08089894
46	0xbed20855	-0.41021982
47	0xbeda82d1	-0.4267793
48	0xbe98cc44	-0.29843342
49	0xbeaafa54	-0.3339411
50	0xbe4cc57a	-0.19997206
51	0x3d66fa20	0.05639088
52	0x3f07226e	0.5278691
53	0xbeeaab61	-0.45833877
54	0x3ef500ec	0.47852266
55	0xbeecad42	-0.46225935
56	0x3eadf530	0.33976126
57	0xbe87b346	-0.26503962
58	0x3eb6e486	0.35721225
59	0x3edc3668	0.4301026
60	0x3e8a8b8e	0.27059597
61	0x3dff4d90	0.12465966
62	0x3f030616	0.5118116
63	0xbdc4d750	-0.0961138
64	0xbe7a2e82	-0.24431804
65	0xbe80d362	-0.25161272
66	0xbf0e1db2	-0.5551406
67	0x3c9f3480	0.019434214
68	0x3ebdc85a	0.3706692
69	0x3dee9bd8	0.116508186
70	0xbdbf3380	-0.09335995
71	0xbe97e973	-0.29670295
72	0x3d167320	0.036730886
73	0x3efda674	0.49541056
74	0xbe407156	-0.18793234
75	0x3f02b82e	0.51062286
76	0x3dbe7a00	0.093006134
77	0x3b951b80	0.0045503974
78	0xbe94fdda	-0.29099923
79	0x3e934a5c	0.2876767
80	0x3ede7f24	0.43456376
81	0xbf06e8d6	-0.5269903
82	0x3ee94310	0.45558977
83	0xbf09af66	-0.5378326
84	0x3eea58fc	0.45771015
85	0x3f0f2ec6	0.55930746
86	0x3e18df00	0.14928818
87	0x3e0c67dc	0.13711494
88	0x3dfd18a8	0.123582184
89	0x3e17dac4	0.14829546
90	0xbea36bbf	-0.3191814
91	0xbed3cbc0	-0.41366386
92	0x3d792f50	0.060836136
93	0x3ebeeb2c	0.37288797
94	0xbe4d0202	-0.20020297
95	0xbe909791	-0.28240636
96	0x3e04d014	0.1297
97	0xbef766aa	-0.48320514
98	0x3f0b1086	0.5432209
99	0x3efe82a4	0.49709046
100	0xbebefab7	-0.37300655
101	0x3edbdb2c	0.42940652
102	0x3f044a94	0.516763
103	0xbe1f9848	-0.15585434
104	0x3ebea7ee	0.37237495
105	0xbe6c70a4	-0.23089844
106	0xbe0851a6	-0.13312396
107	0x3f0db746	0.5535778
108	0xbed10767	-0.4082596
109	0x3ec157c2	0.37762266
110	0xbdfb7878	-0.12278837
111	0x3e69c37c	0.22828478
112	0xbeba7bc6	-0.36422557
113	0x3e9c57fc	0.30535877
114	0xbe903f29	-0.28173187
115	0xbd9b8f88	-0.07595736
116	0x3ec23974	0.37934458
117	0x3d4bbff0	0.049743593
118	0xbc633680	-0.013867974
119	0x3ef3b600	0.47599792
120	0xbf0923ae	-0.5357007
121	0xbea05e2b	-0.31321844
122	0xbec9e2d8	-0.3943088
123	0x3e090ad8	0.13383043
124	0x3ea8991e	0.3292932
125	0x3e081268	0.13288271
126	0xbf12ce6f	-0.5734624
127	0x3e89ff1c	0.26952446
128	0xbd58e390	-0.052951396
129	0x3ea9eaa2	0.33186823
130	0x3ef17600	0.4716034
131	0x3e8dce0c	0.27696264
132	0xbd4d44d0	-0.050114453
133	0x3efba01c	0.4914559
134	0x3eecbd5c	0.4623822
135	0xbe82be42	-0.2553578
136	0x3e5cfbac	0.2158038
137	0x3efe4c40	0.4966755
138	0x3eb3ab62	0.35091692
139	0xbe2fc136	-0.17163548
140	0x3df9b1d0	0.12192118
141	0xbf0d7b50	-0.55266285
142	0x3e45c94c	0.1931507
143	0x3cc18460	0.023622692
144	0x3e1b7fe4	0.15185505
145	0x3e848952	0.25886017
146	0x3eb038ca	0.34418327
147	0xbe8ad710	-0.27117205
148	0x3d76dac0	0.06026721
149	0x3ea93792	0.3305021
150	0x3ddf1e50	0.108944535
151	0xbeeb9266	-0.4601013
152	0xbcb67b20	-0.022275507
153	0x3e19359c	0.14961857
154	0x3ece07d6	0.40240353
155	0xbe61ae2e	-0.220391
156	0x3ea7d0d8	0.32776523
157	0xbe8f61c8	-0.2800429
158	0x3e6e8148	0.23291504
159	0xbed5a0e2	-0.41724306
160	0xbf09ed9c	-0.5387819
161	0xbf0e9de8	-0.55709696
162	0x3eeaf2ec	0.4588846
163	0xbeb4b40c	-0.35293615
164	0x3d5392f0	0.051653802
165	0x3efc3304	0.49257672
166	0x3e968650	0.29399347
167	0xbe7cf78a	-0.24703804
168	0x3dd22ce8	0.102624714
169	0x3ebcd470	0.36880827
170	0x3d7417f0	0.05959314
171	0xbe1e82fe	-0.15479657
172	0x3f09a1f6	0.5376276
173	0xbd51f330	-0.051257312
174	0x3ec33df4	0.38133204
175	0x3ed65b12	0.41866356
176	0x3ee10bd4	0.43954337
177	0x3ee6a128	0.45044827
178	0xbf0d48d1	-0.55189234
179	0x3eb81412	0.35952812
180	0xbd5f8080	-0.054565907
181	0x3f03a3c0	0.5142174
182	0x3dcf7ba0	0.101310015
183	0x3ee0e260	0.4392271
184	0x3e64f2d8	0.22358263
185	0x3e731bac	0.23741025
186	0x3f126d76	0.57198274
187	0xbedbcb1d	-0.429284
188	0x3e9b7652	0.3036371
189	0xbdc44b84	-0.09584716
190	0x3ef22098	0.47290492
191	0xbe1041cc	-0.140876
192	0x3ee7b648	0.45256257
193	0x3e747a7c	0.23874849
194	0xbdf35240	-0.11880922
195	0xbe997dc8	-0.29978776
196	0x3ef1c50c	0.47220647
197	0x3e3e88a8	0.18606818
198	0xbe1a728e	-0.15082762
199	0xbe6dafc6	-0.23211583
200	0x3ed031aa	0.4066289
201	0xbf0c3d52	-0.5478107
202	0x3eb643a2	0.35598475
203	0x3e1a6540	0.15077686
204	0xbe363356	-0.1779302
205	0x3e9a4338	0.3012941
206	0xbf1269b3	-0.57192534
207	0x3e74c310	0.23902535
208	0x3d9c31b8	0.076266706
209	0xbec48973	-0.38386115
210	0xbdb20dbc	-0.08694026
211	0x3e4d0c40	0.20024204
212	0x3e700734	0.23440248
213	0xbedcfc0e	-0.43161052
214	0xbd8df950	-0.06932318
215	0x3f0361a6	0.51320875
216	0xbf02777a	-0.50963557
217	0xbda98d60	-0.08278918
218	0xbd95f1a0	-0.07321477
219	0x3e9e8c2c	0.30966318
220	0x3ebbfd56	0.36716717
221	0xbdbbad54	-0.09163919
222	0x3eb61c2e	0.35568374
223	0x3d992f18	0.074796855
224	0x3eeee27c	0.4665717
225	0xbed78226	-0.42091483
226	0xbf10c3d4	-0.5654881
227	0x3e460c74	0.19340688
228	0x3f0ba8ce	0.5455445
229	0x3e04c3ec	0.12965363
230	0x3e6bc23c	0.23023313
231	0xbeef0280	-0.46681595
232	0x3b450900	0.003006518
233	0xbde3a9c8	-0.111163676
234	0xbec6c664	-0.38823235
235	0x3ede3ae4	0.43404305
236	0xbe832e05	-0.25621048
237	0xbeddd87e	-0.43329233
238	0xbe259218	-0.16169012
239	0x3de245b8	0.11048454
240	0x3e844a72	0.25838047
241	0x3f05cb06	0.52262914
242	0xbebd3ab1	-0.3695884
243	0xbebfa7fc	-0.3743285
244	0x3e8843ba	0.2661417
245	0x3ecd8f92	0.40148598
246	0x3ef5db44	0.4801885
247	0xbf0251ea	-0.5090624
248	0x3f105aa8	0.5638833
249	0x3efb9a44	0.49141133
250	0x3d42fef0	0.04760641
251	0x3e7f5fd0	0.24938893
252	0xbd64ea60	-0.05588758
253	0x3ed6420e	0.4184727
254	0x3e9561c2	0.29176146
255	0x3e85d394	0.26137984

fc2.bias f4 [7]
0	0xbc63e918	-0.013910554
1	0xbd3daf05	-0.04630949
2	0x3d01bf41	0.031676535
3	0x3c0b87ec	0.008516293
4	0xbc9a4975	-0.018833855
5	0xbc8603f8	-0.016359314
6	0xbcbb2931	-0.02284679

onnx::MatMul_18 f4 [3, 432]
0	0xbc42cfc0	-0.011890352
1	0x3dc267c8	0.09492451
2	0xbdb425a8	-0.08796245
3	0x3f054e04	0.5207217
4	0x3e2e36b4	0.17013055
5	0xbe502b04	-0.20328909
6	0xbed730c9	-0.42029408
7	0x3f08e478	0.53473616
8	0x3ebe9cc8	0.3722899
9	0x3ee008f4	0.4375683
10	0x3daa1858	0.083054245
11	0xbf0ac226	-0.54202497
12	0xbaab9000	-0.001308918
13	0x3f0539c0	0.52041245
14	0x3ecc2afa	0.3987654
15	0x3d486360	0.048922896
16	0x3ce3e740	0.02782023
17	0xbec3f0e0	-0.3826971
18	0xbe8bf79c	-0.27337348
19	0x3ed268a2	0.41095454
20	0x3ef255dc	0.4733113
21	0xbeb2df5a	-0.3493603
22	0xbe8a9031	-0.27063134
23	0xbe84adb2	-0.2591377
24	0xbd05e710	-0.03269106
25	0x3d7561f0	0.059907854
26	0x3e692ebc	0.22771734
27	0x3d8b9de0	0.06817222
28	0x3e9fb75e	0.31194586
29	0x3dc57ad0	0.09642565
30	0xbeb01806	-0.34393328
31	0xbe7c7efa	-0.24657813
32	0xbd997c80	-0.074944496
33	0xbecf9680	-0.4054451
34	0xbee3dd30	-0.4450469
35	0xbe30de30	-0.17272258
36	0x3eec0fb4	0.4610573
37	0xbe92a6ab	-0.28642783
38	0xbe6059b8	-0.21909225
39	0x3ef38708	0.47563958
40	0xbdef0934	-0.11671677
41	0xbe9a9994	-0.30195296
42	0x3d908b40	0.0705781
43	0x3ea675ac	0.32511652
44	0xbe95eb12	-0.29280907
45	0xbded58e0	-0.11589217
46	0xbf0f4d01	-0.55976874
47	0xbe94ed25	-0.29087177
48	0x3efd4230	0.4946456
49	0x3e73f24c	0.23822898
50	0x3d0e2490	0.034702837
51	0xbe314a14	-0.17313415
52	0xbe8da292	-0.27663094
53	0x3e3a33b8	0.18183792
54	0x3ec3982e	0.3820204
55	0x3e456fe4	0.19280964
56	0xbe98a4ae	-0.2981314
57	0xbdc1fbd8	-0.094718635
58	0xbcfeb0c0	-0.03109014
59	0xbedca260	-0.43092632
60	0x3d895a98	0.067067325
61	0x3e284298	0.16431653
62	0x3e9978a6	0.2997486
63	0x3ec81ffc	0.39086902
64	0xbefb5f3c	-0.49096096
65	0xbf0d4502	-0.5518342
66	0x3ed79702	0.42107397
67	0x3e8b9dc8	0.27268815
68	0x3ed69a4e	0.419146
69	0x3f0ca73e	0.5494269
70	0x3ea3aeba	0.31969243
71	0xbf0e4065	-0.5556701
72	0x3e998a30	0.2998824
73	0x3e261648	0.16219437
74	0xbf114a6b	-0.5675418
75	0xbf028728	-0.5098748
76	0x3d819a50	0.06328261
77	0xbef3b124	-0.47596085
78	0xbe08ab72	-0.13346651
79	0x3d9a3ed0	0.07531512
80	0xbe020d28	-0.12700331
81	0x3d73deb0	0.059538543
82	0xbe9d9f3a	-0.30785543
83	0xbc03aa40	-0.008036196
84	0x3d933348	0.071875155
85	0xbebc64d2	-0.3679567
86	0xbeca8502	-0.39554602
87	0xbe4a80ae	-0.1977565
88	0xbe3eda20	-0.18637896
89	0x3e39500c	0.18096942
90	0xbe8d283c	-0.2756976
91	0x3e2ca668	0.16860354
92	0x3e25690c	0.16153353
93	0x3f0ab922	0.5418874
94	0xbe691b2c	-0.22764271
95	0x3e9a9e4e	0.30198902
96	0x3e006acc	0.1254074
97	0xbe7241c6	-0.23657903
98	0xbea109f7	-0.31452915
99	0x3e18e168	0.14929736
100	0xbee9917d	-0.4561881
101	0x3ef6b4e4	0.48184884
102	0x3cd95b60	0.026532829
103	0xbeaa3ee2	-0.332511
104	0xbde3df78	-0.11126608
105	0xbe5d74e8	-0.21626627
106	0xbe11db1e	-0.14243743
107	0x3d645da0	0.05575335
108	0xbe9cf2e3	-0.30654058
109	0xbe9a657f	-0.3015556
110	0xbe3ea756	-0.18618521
111	0x3d098fa0	0.033584237
112	0x3ee0e90c	0.439278
113	0xbf0bbb09	-0.5458227
114	0xbb73cd00	-0.0037201047
115	0xbe166058	-0.1468519
116	0x3f130e36	0.5744356
117	0xbec3b793	-0.38225994
118	0x3f029032	0.51001275
119	0xbecee374	-0.40407908
120	0x3ec88aae	0.39168304
121	0xbe1df1fc	-0.15424341
122	0xbd907f10	-0.07055485
123	0xbe762332	-0.24036863
124	0x3f00cb72	0.5031043
125	0x3e6179f0	0.22019172
126	0xbee09dcc	-0.4387039
127	0xb9181000	-0.0001450181
128	0xbeaf3459	-0.34219626
129	0x3ec1756c	0.37784898
130	0x3f0b533a	0.5442387
131	0xbef14d3b	-0.47129235
132	0xbeabc83c	-0.33551204
133	0x3d9d6ad8	0.076863945
134	0xbe925770	-0.28582335
135	0xbf11409a	-0.567392
136	0x3d8115e0	0.063030005
137	0x3cdd12a0	0.02698642
138	0xbeb7e64e	-0.35917896
139	0xbee5406c	-0.44775712
140	0x3caacd60	0.020849884
141	0x3f033922	0.5125905
142	0x3ee679c8	0.45014787
143	0xbf038cbc	-0.5138662
144	0x3e60d170	0.21954894
145	0xbeb346bc	-0.35014904
146	0xbea8bb74	-0.32955515
147	0xbe3c2c92	-0.18376377
148	0xbf050cb4	-0.5197251
149	0xbd8fc698	-0.070203006
150	0xbf07ccbb	-0.5304677
151	0xbec0b45c	-0.37637603
152	0x3f07453c	0.5284002
153	0xbf11b8dc	-0.569227
154	0x3ef65324	0.48110306
155	0xbd8cd750	-0.06877005
156	0xbea5e6ca	-0.3240264
157	0x3edf1ca8	0.4357655
158	0x3f0ebaca	0.5575377
159	0xbd59ec30	-0.05320376
160	0x3ef64fd8	0.4810779
161	0x3e8d8708	0.27642083
162	0x3e127a98	0.14304578
163	0xbea6544b	-0.32486185
164	0xbdd76280	-0.10516834
165	0x3ddab708	0.10679442
166	0xbdd41ac8	-0.103566706
167	0x3f0c894a	0.54896986
168	0xbf0b4de1	-0.5441571
169	0xbf089dd8	-0.5336585
170	0x3da630f0	0.08114803
171	0xbe017c62	-0.12645105
172	0xbee69c8e	-0.45041317
173	0x3e91e85e	0.28497595
174	0x3ec2bd52	0.38035065
175	0x3e9e8600	0.3096161
176	0x3ed03990	0.40668917
177	0x3e25ec54	0.16203433
178	0x3e709a50	0.23496366
179	0x3e826dde	0.25474447
180	0x3e7dad3c	0.24773115
181	0x3ece0016	0.4023444
182	0xbeb7e4c0	-0.3591671
183	0x3e41c3d0	0.18922353
184	0x3e679740	0.22616291
185	0xbe09125c	-0.1338591
186	0x3e9830a6	0.29724616
187	0x3e96155c	0.2931317
188	0x3e6bab48	0.23014557
189	0xbf0e0b68	-0.55486155
190	0xbeb6ad5f	-0.35679147
191	0x3eafb23c	0.3431567
192	0x3e8c838a	0.27444106
193	0xbef982fe	-0.48732752
194	0xbec89078	-0.3917272
195	0xbed37f59	-0.41308096
196	0xbe6ae36e	-0.2293832
197	0xbdca9104	-0.09890941
198	0x3ed55398	0.4166534
199	0xbf083903	-0.5321199
200	0xbe54dbac	-0.20786923
201	0xbe282206	-0.16419229
202	0x3eb573aa	0.35439807
203	0xbede6b38	-0.43441176
204	0x3c5629c0	0.013071477
205	0xbe8d5e25	-0.2761089
206	0xbeffaa77	-0.49934742
207	0xbec6465c	-0.38725555
208	0xbe8acf9c	-0.27111518
209	0x3f119bf0	0.56878567
210	0xbf0321b8	-0.51223326
211	0xbeac3fad	-0.3364233
212	0xbdb9fc28	-0.09081298
213	0x3cea0c40	0.028570294
214	0xbf0078b5	-0.50184184
215	0x3e84aa5a	0.25911218
216	0xbe305a44	-0.17221934
217	0xbefa13f4	-0.48843348
218	0x3e670500	0.22560501
219	0xbe1b6eba	-0.15178958
220	0xbd48ec70	-0.04905361
221	0xbb004300	-0.0019571185
222	0xbe8a1cbe	-0.26975054
223	0x3ee75824	0.45184433
224	0xbe857224	-0.26063645
225	0x3e523434	0.20527726
226	0xbe024e6e	-0.12725231
227	0x3eccd7ce	0.40008396
228	0x3f051a40	0.5199318
229	0x3ea9bd5c	0.33152282
230	0xbe451c2e	-0.19249031
231	0xbf018fb5	-0.50609905
232	0xbca2c2a0	-0.019868195
233	0x3c9e0b60	0.019292533
234	0xbea8e418	-0.32986522
235	0xbee3706a	-0.44421703
236	0xbf11841e	-0.5684222
237	0xbe46c222	-0.19409993
238	0x3defd158	0.11709851
239	0xbe631996	-0.22177729
240	0xbedfafae	-0.4368872
241	0x3e9a47f6	0.30133027
242	0xbf055acb	-0.52091664
243	0x3e3fee50	0.18743253
244	0xbe314d58	-0.1731466
245	0xbeb9da4a	-0.36299354
246	0xbe5fb176	-0.2184504
247	0x3dc4c7b0	0.096084
248	0xbef3615e	-0.47535223
249	0x3e5d69c4	0.21622378
250	0x3d7640f0	0.060120523
251	0xbee8861f	-0.45414826
252	0xbeacfdf3	-0.33787498
253	0x3f0075ae	0.50179565
254	0x3e689b94	0.22715598
255	0xbd8751b0	-0.066073775

onnx::MatMul_19 f4 [432, 7]
0	0xbd2cd412	-0.042194434
1	0xbd18c5e8	-0.037298113
2	0xbc894358	-0.016755745
3	0xbd28b197	-0.041184988
4	0x3d0ea3d5	0.03482421
5	0x3d0c9597	0.034322347
6	0x3d382065	0.04495277
7	0xbc98e738	-0.018664941
8	0x3ca41aba	0.020032275
9	0x3c63c100	0.013900995
10	0x3c0f7f98	0.008758448
11	0x3c62bb54	0.013838608
12	0xbc9c3503	-0.019068247
13	0xbcb7625f	-0.022385774
14	0xbc9cbb4b	-0.019132277
15	0xbd086fd7	-0.033309784
16	0xbcf2f735	-0.029658893
17	0xbbc41048	-0.005983386
18	0xbd2e0df2	-0.042493768
19	0x3bc8b0e0	0.006124601
20	0xbc402df0	-0.011729702
21	0xbd279572	-0.040914007
22	0xbb79db30	-0.003812503
23	0x3d42a747	0.04752281
24	0x3d04101b	0.032241922
25	0x3ce3099a	0.02771454
26	0x3ca299a6	0.019848656
27	0x3bb9f1c0	0.005674571
28	0xbd080f28	-0.03321758
29	0x3c2459ac	0.010031145
30	0x3d1c4f51	0.03816158
31	0x3d0f938f	0.035052832
32	0xbce53008	-0.027977005
33	0x3d35a965	0.044351
34	0x3d09d509	0.03365043
35	0x3c48c874	0.012254823
36	0x3d1b3b41	0.037898306
37	0xbd12b00c	-0.035812423
38	0xbd2b8d5c	-0.041882858
39	0x3be33cf0	0.0069347546
40	0x3b5dbeb0	0.0033835582
41	0xbceb516d	-0.02872535
42	0x3d0db29b	0.03459416
43	0xbceb6c1e	-0.028738078
44	0x3c476948	0.012171097
45	0xbc7a03f8	-0.015259735
46	0xbc72917c	-0.014805194
47	0x3d11702f	0.035507377
48	0xbba2d9f0	-0.004969828
49	0xbc8732c0	-0.016503692
50	0xbc737e50	-0.014861658
51	0xba3150c0	-0.0006764047
52	0xbd19bb68	-0.03753224
53	0x3d41ace9	0.04728404
54	0x3ce24a02	0.02762318
55	0x3ca0ac6e	0.01961347
56	0x3cd778fa	0.026302803
57	0xbd0aea8d	-0.03391509
58	0xbd25f0fd	-0.040513027
59	0xbcca3cc4	-0.024687178
60	0xbd389d48	-0.04507187
61	0xbd251ce2	-0.040310748
62	0x3cf7431a	0.030183364
63	0xbcfd99f8	-0.030957207
64	0x3c13350c	0.008984815
65	0xbd3029d1	-0.04300863
66	0x3bd8a048	0.006610904
67	0x3cca04ca	0.024660487
68	0x3cde451e	0.027132567
69	0x3c83383e	0.01601803
70	0x3b4e64a0	0.0031493083
71	0xbd299ce2	-0.04140938
72	0x3d450501	0.048100475
73	0x3bb538d8	0.005530458
74	0xbd42eb56	-0.047587715
75	0x3d1b176f	0.037864145
76	0xbc292768	-0.010324337
77	0x3cb04536	0.021517377
78	0xbb54a860	-0.0032448992
79	0xbd053fba	-0.032531478
80	0xbd159f15	-0.036528666
81	0xbba421b0	-0.0050088987
82	0x3d25da71	0.040491525
83	0xbc97fee5	-0.01855416
84	0xbb22eda0	-0.0024860874
85	0x3c677358	0.014126621
86	0xbcbb12e4	-0.022836156
87	0x3c2eca68	0.010668375
88	0xbd3a5719	-0.04549322
89	0xbd0c266e	-0.034216337
90	0xbd03d8ca	-0.032189168
91	0x3cd49266	0.025948714
92	0xbcbaf094	-0.022819795
93	0xbd24f679	-0.040274117
94	0x3cc471fa	0.02398013
95	0x3cc71582	0.024302248
96	0xbbbe31b0	-0.005804263
97	0xbd0865d2	-0.03330023
98	0x3b737160	0.0037146434
99	0x3c94e216	0.018174212
100	0xbc87e1f2	-0.016587231
101	0x3c887dc6	0.016661536
102	0xbc8241ec	-0.015900575
103	0xbd2af756	-0.041739784
104	0x3d2790c7	0.040909555
105	0x3d154037	0.036438193
106	0xbd0021f5	-0.031282384
107	0xbd12ec75	-0.035870034
108	0x3c879d56	0.016554516
109	0x3c894f66	0.016761493
110	0x3c346f50	0.011012867
111	0xbcba848a	-0.022768278
112	0x3ca469ca	0.020069975
113	0xbcd0c750	-0.025485665
114	0xbcc00375	-0.023439148
115	0xbd0e2bdc	-0.034709796
116	0x3c28d090	0.010303631
117	0x3c8c40ce	0.017120745
118	0x3d274d81	0.040845398
119	0xbc3edc00	-0.011649132
120	0xbc3bd020	-0.011463195
121	0x3c97ceb6	0.018531185
122	0x3c6c0ff4	0.0144081
123	0xbd0054a4	-0.03133072
124	0xbcb4a8d6	-0.022053163
125	0xbd223a5d	-0.03960644
126	0xbca2d9c7	-0.019879235
127	0x3bd36550	0.0064512864
128	0x3d38070f	0.044928607
129	0xbd396bc4	-0.04526879
130	0xbc61b940	-0.013777077
131	0x398fa180	0.00027395412
132	0x3ccede16	0.025252383
133	0xbce69d72	-0.028151248
134	0x3b445db0	0.0029963069
135	0xbc7f4a7c	-0.015581723
136	0x3ce6cd4a	0.028174061
137	0x3d073673	0.03301091
138	0x3d19ce89	0.037550483
139	0xbc7c0b94	-0.01538362
140	0x3cef2362	0.029191677
141	0x3c3da698	0.011575364
142	0x3d16084d	0.03662901
143	0x3c82455a	0.01590221
144	0x3d172217	0.036897745
145	0x3d031bcf	0.032008942
146	0xbd3047b9	-0.04303715
147	0x3d414885	0.0471883
148	0xbd029772	-0.03188271
149	0xbd22daa5	-0.039759297
150	0xbd43d2cf	-0.047808465
151	0x3d2fcc47	0.042919423
152	0x3cb4f54a	0.02208962
153	0x3d0ad9cd	0.033899117
154	0x3989b980	0.00026268885
155	0x3cf6a46e	0.030107703
156	0x3c985c2a	0.018598635
157	0xbd25f5de	-0.04051768
158	0xbd2233c8	-0.039600164
159	0xbd046265	-0.0323204
160	0x3d2d6d5b	0.042340618
161	0xbc8868ce	-0.016651537
162	0x3cf25f36	0.029586416
163	0xba0a5080	-0.00052762777
164	0x3d2a0ed3	0.041518044
165	0xbd131a7d	-0.035913933
166	0xbcb0ce7e	-0.021582838
167	0x3d2005db	0.039068084
168	0xbd09ff30	-0.03369063
169	0xbd378b9f	-0.044810887
170	0xbb14bc90	-0.00226954
171	0x3cafa232	0.021439645
172	0xbb981218	-0.004640829
173	0x3d3b8d17	0.04578885
174	0xbc0e9834	-0.00870328
175	0xbc18c994	-0.009325404
176	0xba2d3680	-0.00066075474
177	0xbcdd5c66	-0.027021598
178	0x3baba848	0.0052385665
179	0x3d1d8937	0.038460936
180	0x3cf37f42	0.029723767
181	0x3d311853	0.043236088
182	0xbd049912	-0.03237254
183	0xbce1a29c	-0.027543359
184	0xbd286995	-0.041116316
185	0xbd2bab3b	-0.041911345
186	0xbd43392f	-0.047661956
187	0x3c6788e0	0.014131755
188	0xbd2cc82a	-0.04218308
189	0x3cdecefe	0.027198311
190	0xbc27c1b0	-0.01023905
191	0x3bc623f8	0.0060467683
192	0xbcb0ee96	-0.021598142
193	0x3c60acf0	0.0137131065
194	0xbd35c7a7	-0.044379856
195	0x3cf4570e	0.029826667
196	0xbd4412e5	-0.04786958
197	0xbd20657d	-0.039159287
198	0x3c6de2cc	0.014519405
199	0xbb0e7440	-0.002173677
200	0x3d34f913	0.04418285
201	0xbd25caa9	-0.040476475
202	0x3c96425a	0.018342186
203	0xbd29bb98	-0.04143867
204	0x3c605f34	0.013694573
205	0x3ca80276	0.020508986
206	0x3d259edd	0.040434707
207	0xbc4b7044	-0.012416903
208	0x3d1cf7fd	0.038322438
209	0x3ce369fa	0.027760495
210	0x3cc3a4a6	0.023882221
211	0x3c803f46	0.015655171
212	0xbc6ea38c	-0.01456536
213	0x3cb9eb92	0.022695336
214	0xbc0fcc2c	-0.008776706
215	0x3ce40aba	0.027837146
216	0x3d186595	0.03720625
217	0xbd19d682	-0.037558086
218	0xbcdd5671	-0.027018758
219	0xbc1fa3d0	-0.009743646
220	0xbce08fec	-0.027412377
221	0x3ca55a76	0.020184737
222	0xbbed4348	-0.0072406866
223	0xbcbe8de0	-0.02326101
224	0xbd11ba0c	-0.03557782
225	0x3afdc1c0	0.001936011
226	0xbd13c742	-0.0360787
227	0x3b94ee60	0.004545018
228	0x3c16b068	0.009197332
229	0xbcde640e	-0.02714732
230	0x3cbb5fea	0.022872884
231	0xbca8e2c4	-0.020615943
232	0xbd343d4c	-0.04400377
233	0x3cde6caa	0.027151424
234	0xbd36474d	-0.04450159
235	0xbd3dad2e	-0.046307735
236	0xbd17d233	-0.037065696
237	0x3d0ab93d	0.033868063
238	0xbc898a0c	-0.016789459
239	0xbb9d8028	-0.004806537
240	0xbca94c10	-0.020666152
241	0xbcc0ae83	-0.023520714
242	0x3ce23d02	0.027616981
243	0x3cc1b00a	0.023643512
244	0x3cfe5e62	0.031050865
245	0x3d2d38cf	0.042290505
246	0xbc029e64	-0.007972334
247	0x3d0202f7	0.03174111
248	0x3c446028	0.011985816
249	0xbd24a4d3	-0.04019625
250	0x3bb33cc8	0.005469892
251	0xbd193038	-0.0373995
252	0xbd40cceb	-0.047070425
253	0x3d3f118b	0.04664759
254	0xbc262294	-0.01014008
255	0x3c3fb378	0.0117005035

onnx::MatMul_20 f4 [7, 1]
0	0xbda5bb00	-0.08092308
1	0x3e533616	0.20626101
2	0xbe2971fd	-0.1654739
3	0xbdaa98c8	-0.08329922
4	0x3e6538ea	0.22384992
5	0xbdb9a0c4	-0.09063867
6	0xbe4bf2b3	-0.19916801
